…
2025-06-11 16:41:08 [INFO]: graph_layers: 3
2025-06-11 16:41:08 [INFO]: linear_hidden: [64]
2025-06-11 16:41:08 [INFO]: lr: 0.005
2025-06-11 16:41:08 [INFO]: weight_decay: 0.0001
2025-06-11 16:41:08 [INFO]: feat_drop: 0.1
2025-06-11 16:41:08 [INFO]: patience: 15
2025-06-11 16:41:08 [INFO]: ft_num: 6
2025-06-11 16:41:08 [INFO]: aggregator: mean
2025-06-11 16:41:08 [INFO]: MainModel(
  (encoders): ModuleDict(
    (metric): Encoder(
      (graph_encoder): SAGEEncoder(
        (sage_layers): ModuleList(
          (0): SAGEConv(
            (feat_drop): Dropout(p=0.1, inplace=False)
            (fc_neigh): Linear(in_features=128, out_features=96, bias=False)
            (fc_self): Linear(in_features=128, out_features=96, bias=False)
          )
          (1): SAGEConv(
            (feat_drop): Dropout(p=0.1, inplace=False)
            (fc_neigh): Linear(in_features=96, out_features=96, bias=False)
            (fc_self): Linear(in_features=96, out_features=96, bias=False)
          )
          (2): SAGEConv(
            (feat_drop): Dropout(p=0.1, inplace=False)
            (fc_neigh): Linear(in_features=96, out_features=48, bias=False)
            (fc_self): Linear(in_features=96, out_features=48, bias=False)
          )
        )
        (pool): MaxPooling()
      )
    )
    (trace): Encoder(
      (graph_encoder): SAGEEncoder(
        (sage_layers): ModuleList(
          (0): SAGEConv(
            (feat_drop): Dropout(p=0.1, inplace=False)
            (fc_neigh): Linear(in_features=128, out_features=96, bias=False)
            (fc_self): Linear(in_features=128, out_features=96, bias=False)
          )
          (1): SAGEConv(
            (feat_drop): Dropout(p=0.1, inplace=False)
            (fc_neigh): Linear(in_features=96, out_features=96, bias=False)
            (fc_self): Linear(in_features=96, out_features=96, bias=False)
          )
          (2): SAGEConv(
            (feat_drop): Dropout(p=0.1, inplace=False)
            (fc_neigh): Linear(in_features=96, out_features=48, bias=False)
            (fc_self): Linear(in_features=96, out_features=48, bias=False)
          )
        )
        (pool): MaxPooling()
      )
    )
    (log): Encoder(
      (graph_encoder): SAGEEncoder(
        (sage_layers): ModuleList(
          (0): SAGEConv(
            (feat_drop): Dropout(p=0.1, inplace=False)
            (fc_neigh): Linear(in_features=128, out_features=96, bias=False)
            (fc_self): Linear(in_features=128, out_features=96, bias=False)
          )
          (1): SAGEConv(
            (feat_drop): Dropout(p=0.1, inplace=False)
            (fc_neigh): Linear(in_features=96, out_features=96, bias=False)
            (fc_self): Linear(in_features=96, out_features=96, bias=False)
          )
          (2): SAGEConv(
            (feat_drop): Dropout(p=0.1, inplace=False)
            (fc_neigh): Linear(in_features=96, out_features=48, bias=False)
            (fc_self): Linear(in_features=96, out_features=48, bias=False)
          )
        )
        (pool): MaxPooling()
      )
    )
  )
  (locator): Voter(
    (net): FullyConnected(
      (net): Sequential(
        (0): Linear(in_features=144, out_features=64, bias=True)
        (1): ReLU()
        (2): Linear(in_features=64, out_features=1, bias=True)
      )
    )
  )
  (typeClassifier): Classifier(
    (net): FullyConnected(
      (net): Sequential(
        (0): Linear(in_features=144, out_features=64, bias=True)
        (1): ReLU()
        (2): Linear(in_features=64, out_features=6, bias=True)
      )
    )
  )
)
2025-06-11 16:41:08 [INFO]: Start training for 500 epochs.
2025-06-11 16:41:09 [DEBUG]: con_loss: 2.172, RCA_loss: 1.992, TC_loss: 1.765
2025-06-11 16:41:09 [INFO]: Epoch 0 done. Loss: 5.737, Time per epoch: 0.282[s]
2025-06-11 16:41:09 [DEBUG]: con_loss: 2.167, RCA_loss: 1.019, TC_loss: 1.569
2025-06-11 16:41:09 [INFO]: Epoch 1 done. Loss: 5.150, Time per epoch: 0.036[s]
…
