…
2025-05-26 17:39:06 [INFO]: graph_layers: 2
2025-05-26 17:39:06 [INFO]: linear_hidden: [64]
2025-05-26 17:39:06 [INFO]: lr: 0.001
2025-05-26 17:39:06 [INFO]: weight_decay: 0.0001
2025-05-26 17:39:06 [INFO]: feat_drop: 0.1
2025-05-26 17:39:06 [INFO]: patience: 20
2025-05-26 17:39:06 [INFO]: ft_num: 9
2025-05-26 17:39:06 [INFO]: aggregator: mean
2025-05-26 17:39:06 [INFO]: MainModel(
  (encoders): ModuleDict(
    (metric): Encoder(
      (graph_encoder): SAGEEncoder(
        (sage_layers): ModuleList(
          (0): SAGEConv(
            (feat_drop): Dropout(p=0.1, inplace=False)
            (fc_neigh): Linear(in_features=128, out_features=64, bias=False)
            (fc_self): Linear(in_features=128, out_features=64, bias=False)
          )
          (1): SAGEConv(
            (feat_drop): Dropout(p=0.1, inplace=False)
            (fc_neigh): Linear(in_features=64, out_features=32, bias=False)
            (fc_self): Linear(in_features=64, out_features=32, bias=False)
          )
        )
        (pool): MaxPooling()
      )
    )
    (trace): Encoder(
      (graph_encoder): SAGEEncoder(
        (sage_layers): ModuleList(
          (0): SAGEConv(
            (feat_drop): Dropout(p=0.1, inplace=False)
            (fc_neigh): Linear(in_features=128, out_features=64, bias=False)
            (fc_self): Linear(in_features=128, out_features=64, bias=False)
          )
          (1): SAGEConv(
            (feat_drop): Dropout(p=0.1, inplace=False)
            (fc_neigh): Linear(in_features=64, out_features=32, bias=False)
            (fc_self): Linear(in_features=64, out_features=32, bias=False)
          )
        )
        (pool): MaxPooling()
      )
    )
    (log): Encoder(
      (graph_encoder): SAGEEncoder(
        (sage_layers): ModuleList(
          (0): SAGEConv(
            (feat_drop): Dropout(p=0.1, inplace=False)
            (fc_neigh): Linear(in_features=128, out_features=64, bias=False)
            (fc_self): Linear(in_features=128, out_features=64, bias=False)
          )
          (1): SAGEConv(
            (feat_drop): Dropout(p=0.1, inplace=False)
            (fc_neigh): Linear(in_features=64, out_features=32, bias=False)
            (fc_self): Linear(in_features=64, out_features=32, bias=False)
          )
        )
        (pool): MaxPooling()
      )
    )
  )
  (locator): Voter(
    (net): FullyConnected(
      (net): Sequential(
        (0): Linear(in_features=96, out_features=64, bias=True)
        (1): ReLU()
        (2): Linear(in_features=64, out_features=1, bias=True)
      )
    )
  )
  (typeClassifier): Classifier(
    (net): FullyConnected(
      (net): Sequential(
        (0): Linear(in_features=96, out_features=64, bias=True)
        (1): ReLU()
        (2): Linear(in_features=64, out_features=9, bias=True)
      )
    )
  )
)
2025-05-26 17:39:06 [INFO]: Start training for 500 epochs.
2025-05-26 17:39:06 [DEBUG]: con_loss: 1.838, RCA_loss: 6.232, TC_loss: 5.374
2025-05-26 17:39:06 [INFO]: Epoch 0 done. Loss: 9.495, Time per epoch: 0.256[s]
2025-05-26 17:39:06 [DEBUG]: con_loss: 1.859, RCA_loss: 4.979, TC_loss: 4.354
2025-05-26 17:39:06 [INFO]: Epoch 1 done. Loss: 8.368, Time per epoch: 0.024[s]
…
